workspace/src/tutorial_4/data/weights-150.npy (npy, 20128 bytes, 1 tensors)

array f4 [50, 50, 2]
00000000: 8e78 80be 07c4 663f d28f ed3e 760d 4a3e
00000010: 531e 30bf 7c21 30bf dd42 62bf 717b 3b3f
00000020: 6315 4f3e fa10 d53e f375 75bf 0698 703f
00000030: ec35 2a3f 4a48 13bf d7e7 22bf ce18 22bf
00000040: b974 c8be 00ce 4a3d 6960 0bbe 07c8 d5be
00000050: 2113 653e 4394 38bf 09d8 d4be 71d8 88be
00000060: f6ef b3bd 9502 123f 5cc4 19bf 9037 e93c
00000070: d943 3d3e a737 68bf 7a40 5c3e 10b1 28bf
00000080: 8fb1 5ebf 53d4 653f 5267 6e3f 42e6 1d3f
00000090: 5413 c8be ecfd 4dbf 95a7 bc3e a922 f5bd
000000a0: 3484 41bf 030b 1ebc a164 6ebf 7292 513f
000000b0: 6102 f7be 3e6c a63e d0ce c0be b165 243d
000000c0: 4753 bf3d c25a 21bf 656d 703f 36de 0c3f
000000d0: 0106 613f cf26 4a3f c97f 483e e6ff 573f
000000e0: 1cb1 52bf 22a8 1bbf f8d7 68bf 9bdc b2be
000000f0: 29fd 63be 7b23 eabe 4850 283f 42af 92be
00000100: b452 e0be 17e2 ae3d c8d8 37bf 90b9 1a3f
00000110: 7fd4 59bf 3f49 793f ab63 0b3f f041 1abf
00000120: 342c 7dbf 2984 213f 69d2 d33e db80 ea3e
00000130: f2e3 0a3f d216 5abf 5cee 90be d0ac 44bf
00000140: b1e8 393f ba83 7c3e 1129 adbe 4875 5fbf
00000150: da8d c1be 2503 b3be e21d eb3e dedb 8c3e
00000160: c040 463f 869d 63bd 8bc4 42bf d75c da3e
00000170: 9e85 053f ccfd fa3d 36bc 0a3f 4f4e 4bbc
00000180: 333a 3a3d 6065 14be 44fc 72bf 74c2 48bf
00000190: 84e8 6fbf 2caf 8b3e 7719 bebe 166c 8c3c
000001a0: 8eac 503f c55c 00bf 2889 37be 99d7 023f
000001b0: f8da 0abf 1796 58bf 654b d7be 6774 2dbf
000001c0: 5501 5c3f f4c1 1d3f ff9a 883e 1530 3e3f
000001d0: e87a 1b3f e479 20bf 7efd 483f 5525 a13d
000001e0: cc68 1d3f 7bcc 4a3f 4c5d babe 46a7 47bf
000001f0: 154c 0bbf 8348 15be d5d2 223f aeb1 383f
00000200: c570 7cbf 7415 b03c 6c24 29be e347 0ebf
00000210: 02a1 42bf 3548 a6be 10c5 623f 4a0a b5be
00000220: caee 193d 34e4 cf3e aea4 8bbe 6c8d 713f
00000230: e4c5 6c3f c82c febe 6952 b4bb 8ee6 cbbe
00000240: c652 dcbe 271d 6dbf 4463 603e 8d92 af3b
00000250: 94a4 65bf 80aa e2be 3a08 513f 2558 05bf
00000260: 57d0 35bf 54ce acbc 2da7 783f 5511 04bf
00000270: 4d44 b03e 02f3 053f 5f54 06bf 8cb1 e93e
00000280: dc63 87be 2e7b 873e 03bc 883e 7a88 923d
00000290: 8ac5 51bf c5ac 2b3f 6e85 b7be a580 20bf
000002a0: 851f 6bbf 1426 3a3e 6fd3 b53e cd81 77bf
000002b0: f621 c63c bf08 0cbf 2da8 943e 72b9 26bf
000002c0: 2f85 c33e 4cf7 67be 139b 5f3f db96 39bf
000002d0: 81bf a2be cce6 45bf 7171 593f a032 413f
000002e0: 26de f7be dcd2 a33e f36a 223f 3f1a e23d
000002f0: c5e5 723d f02b 04bf d654 50bf dd5f 4b3f
00000300: 9803 4d3f c04b 883e 60d5 a4be ce68 9abe
00000310: ed60 e73e 0952 4b3f 3130 463f d94b 0f3f
00000320: be70 913e 9beb 54bf 003f 2dbf 4b0f 4c3f
00000330: 7bf7 593e 864a 7bbf ec0b 4cbf 026d a73e
00000340: 9168 7dbf 91aa 2dbf 159d c73d 2d80 c43e
00000350: bb9b 9b3e 932c 0dbf 8345 d93e 4a87 06bf
00000360: 6cca b2be 3e68 fc3e 5e39 993e 69cd 323f
00000370: 4665 a13e 62e5 0b3e dc09 50bf 8275 87be
00000380: ca6e f0be ca13 03bf 702e 723f 95ef 5abe
00000390: 53ba 483f 3449 863e 82f1 163f 15d3 ac3b
000003a0: c97f 1d3e 222e 75bc 1c09 1cbf 7dca e33e
000003b0: 367d e0be dc8c 73bf b1f6 943e c051 25bf
000003c0: ca83 613f 5469 683f 1b69 543f 1ef5 84be
000003d0: 1216 78bf 924c 5b3f 3014 13be 61ed 6e3f
000003e0: 995f 6d3f a8bd 343f fd7b d2be e251 6bbe
000003f0: 30c8 333f cc78 bbbe 3f38 29bf 71a8 e83d
-0.25091976 0.90142864 0.4639879 0.19731697 -0.6879627 -0.68801093 -0.88383275 0.7323523
0.20223002 0.41614515 -0.958831 0.9398197 0.6648853 -0.5753218 -0.6363501 -0.633191
-0.39151552 0.049512863 -0.13610996 -0.4175417 0.22370578 -0.7210123 -0.41571072 -0.26727632
-0.08786003 0.5703519 -0.60065246 0.028468877 0.18482913 -0.9070992 0.21508971 -0.65895176
-0.8698968 0.89777106 0.93126404 0.6167947 -0.39077246 -0.8046558 0.36846605 -0.119695015
-0.7559235 -0.00964618 -0.931223 0.8186408 -0.48244002 0.32504457 -0.37657785 0.040136043
0.09342056 -0.6302911 0.9391692 0.55026567 0.87899786 0.7896547 0.19579996 0.84374845
-0.823015 -0.60803425 -0.9095454 -0.34933934 -0.22264542 -0.45730194 0.657475 -0.28649336
-0.43813097 0.08539217 -0.71815157 0.60439396 -0.8508987 0.9737739 0.54448956 -0.6025686
-0.98895574 0.63092285 0.41371468 0.45801434 0.54254067 -0.8519107 -0.28306854 -0.7682619
0.72620684 0.24659625 -0.33820394 -0.8728833 -0.37803537 -0.34963337 0.45921236 0.27511495
0.7744255 -0.055570148 -0.7608115 0.42648956 0.5215701 0.12255439 0.5419344 -0.012408807
0.04546566 -0.14491796 -0.94916177 -0.7842171 -0.93714166 0.27282083 -0.37128803 0.017141383
0.815133 -0.50141555 -0.17923415 0.51110226 -0.5424037 -0.8460402 -0.4204971 -0.6775574
0.8593953 0.61624074 0.26680753 0.7429212 0.60734415 -0.6268599 0.785118 0.07868449
0.6148803 0.7921826 -0.36399305 -0.77989614 -0.54412967 -0.14578442 0.63602954 0.7214612
-0.9860957 0.021494605 -0.165178 -0.5557844 -0.7602693 -0.32476965 0.88581944 -0.35359412
0.037581243 0.40603793 -0.27274078 0.9435642 0.9248946 -0.4964354 -0.005502988 -0.39824337
-0.430319 -0.9262261 0.21912867 0.0053580464 -0.8970425 -0.44270706 0.8165318 -0.5208762
-0.71021026 -0.021094479 0.9713009 -0.51588947 0.3442711 0.52323925 -0.5247249 0.4564327
-0.26443374 0.26461166 0.26705942 0.07154937 -0.81942046 0.670605 -0.35843986 -0.62696296
-0.9184497 0.18178588 0.35512874 -0.96682435 0.024186116 -0.54700845 0.29034558 -0.6512672
0.3818755 -0.2265293 0.87346 -0.7249581 -0.3178673 -0.77305293 0.8493872 0.7546787
-0.48411673 0.3199681 0.6344444 0.11040162 0.059301157 -0.51629543 -0.8137945 0.7944315
0.8008361 0.26620293 -0.32194042 -0.30158085 0.45191136 0.7942205 0.77417284 0.5597511
0.28406328 -0.83172005 -0.67674255 0.79710835 0.21285813 -0.9816059 -0.7970569 0.32700354
-0.9898768 -0.6783839 0.09746758 0.3837904 0.3039225 -0.5514614 0.42435846 -0.52550185
-0.3492006 0.4929828 0.2992658 0.6984468 0.31522578 0.13661721 -0.81265044 -0.2645684
-0.46959525 -0.5120207 0.9460211 -0.21380456 0.7840931 0.26227725 0.5896226 0.0052741864
0.15380777 -0.014964612 -0.609514 0.44490424 -0.43845528 -0.9513681 0.2909446 -0.64577866
0.8809172 0.9078572 0.8297288 -0.2596826 -0.96908677 0.8566371 -0.1436317 0.9333096
0.92723995 0.7060189 -0.4111022 -0.22980455 0.70227337 -0.36615598 -0.6610145 0.11360253
